lex_main_folder/trained_models/meso+mfcc/weights.pth (torch, 125180 bytes, 30 tensors)

Incption1_conv2_1.weight f4 [4, 1, 1, 1]
000000 a2 70 53 3f c8 63 62 be 9d 9f 6c 3f 3e 40 63 be
       0.8259374 -0.22108376 0.9243105 -0.22192475

Incption1_conv2_2.weight f4 [4, 4, 3, 3]
000000 ba 84 e5 3c 37 f0 a9 bd 9b 00 da 3d 8b 24 16 3e
       0.02801739 -0.082977705 0.10644647 0.14662378
000010 17 c8 f3 bd 81 0b 24 3e 2d aa 0f 3d 88 bc 0c 3e
       -0.119033985 0.16020013 0.0350744 0.13743794
000020 13 96 12 3d 31 8c ae 3d bb 34 af bc a6 e1 f2 3d
       0.035787653 0.08522833 -0.021387449 0.11859445
000030 0f 5d c8 3c fc a6 a4 bd 52 e6 d9 3c d4 47 a4 bd
       0.024458436 -0.08039662 0.026599083 -0.08021513
000040 7d 4a 0b bd 87 d0 a4 bd da 15 d7 3d 05 43 08 be
       -0.034006584 -0.08047586 0.10502215 -0.13306816
000050 08 9d 8a bd cb a4 3f bd a7 2e c6 bd fd 34 01 3d
       -0.067682326 -0.04678802 -0.09676867 0.031544674
000060 1c fa 23 be c5 03 29 3e 06 df 02 be 50 49 08 3e
       -0.16013378 0.16505344 -0.12780389 0.13309216
000070 9c ab f1 3c 4d 1f 80 bd ad 7b d0 3d 1c 51 b6 3c
       0.029500775 -0.0625597 0.10179839 0.022255473
000080 a3 04 f1 3d 96 d1 6b 3c 5f 27 88 bd db ac 00 3d
       0.117684625 0.014393231 -0.066481344 0.031414848
000090 d7 5f 60 bd e0 c6 a6 3d 4a 1a 07 3e 41 5d bf 3d
       -0.0547789 0.08143401 0.13193622 0.09343959
0000a0 d4 57 9a bd 8f d3 b7 3d c1 06 f9 3c 69 8b ba 3d
       -0.07536283 0.089758985 0.030398728 0.091086216
0000b0 7b f9 d9 bd a1 b1 1e be 44 5c 9a bd dc 93 e2 bd
       -0.10643288 -0.15497448 -0.075371295 -0.11063358
0000c0 b3 4e 0e 3e 63 d6 4c 3d 3a 6b 99 3d c3 c1 54 3d
       0.13897209 0.050009143 0.07491155 0.051942598
0000d0 84 a1 1a bc 6b 35 0a 3e 9f aa 02 be 11 b1 b5 3c
       -0.009437922 0.1349694 -0.127604 0.022179158
0000e0 91 45 05 be 70 99 47 3d 0b 71 74 bd 10 b6 37 3d
       -0.13014819 0.048730314 -0.05967812 0.044851363
0000f0 3f 74 0b bd b0 43 14 3e fc ee d3 bd 56 50 b8 bd
       -0.034046408 0.14478946 -0.10348317 -0.08999698
000100 df 12 e3 bd 67 3c 2a 3e 80 d6 6c 3d e9 23 26 3e
       -0.11087584 0.16624604 0.05782175 0.16224636
000110 be 96 06 be 70 d8 28 be 3a 41 0b be 1e 04 da bd
       -0.13143441 -0.16488814 -0.135991 -0.106453165
000120 da 0c 00 3e 5d 9e bf 3d 0e 96 15 3e 2d 3e 86 bd
       0.12504902 0.09356377 0.14608023 -0.06554828
000130 25 99 e8 bd e6 26 c0 3d 0d 8c 2d bd a2 e1 ea 3d
       -0.11357335 0.09382419 -0.04236989 0.11468817
000140 a6 94 82 bc 27 bc 13 3d 82 eb 23 be 75 06 b9 bd
       -0.015940022 0.036068108 -0.16007808 -0.09034435
000150 98 e8 f6 3c d5 52 10 3d 91 d5 42 bd 2e 4f 96 3d
       0.030140206 0.035235245 -0.047566954 0.07339321
000160 90 a0 c8 3d f8 11 12 be 22 73 fb bc c2 53 3e 3e
       0.0979625 -0.14264667 -0.030694548 0.18586639
000170 41 a2 42 bd 62 f2 1e bd 84 1e 25 be fc 6c b7 bd
       -0.04751802 -0.038805373 -0.16124922 -0.08956334
000180 0e b7 87 3d 5f 31 03 bc e6 f1 c6 bd 3f e7 5a bd
       0.06626712 -0.008007376 -0.09714107 -0.05344319
000190 8b 52 14 be a9 d6 15 be 82 af e2 bd b2 17 13 be
       -0.14484613 -0.14632668 -0.11068632 -0.14364508
0001a0 b5 2e e2 bd 8a 5d 0f 3e b1 d3 8f 3c 9e 3e e3 3c
       -0.11044065 0.14000526 0.017556997 0.02773982
0001b0 ee 6d 05 be 20 05 13 be 16 80 d2 bd b9 88 40 3d
       -0.13030216 -0.14357424 -0.10278337 0.04700539
0001c0 c4 7b 0f be 57 35 a5 bd 1c 72 aa bd 01 3f 53 3a
       -0.14012057 -0.080668144 -0.08322546 0.00080583995
0001d0 49 44 89 bd d2 b3 0f bd ad 98 9a bd 6c 61 83 bd
       -0.067024775 -0.0350836 -0.07548652 -0.06415066
0001e0 ed 10 ee bd 8a a3 7c bd 3d bf f5 bd 59 f0 f6 3d
       -0.11624322 -0.0616794 -0.119993664 0.120575614
0001f0 6c 92 03 bd 60 45 14 3e a8 c1 9a 3d e4 79 33 be
       -0.03212206 0.1447959 0.07556468 -0.17526966
000200 f8 b1 88 3d 9f 32 c9 bc 84 09 6d bd 98 71 16 be
       0.0667457 -0.02456027 -0.057870403 -0.1469177
000210 5b 33 18 be 88 6c 43 3d 60 a0 2a bd 72 d7 22 3d
       -0.1486334 0.047710925 -0.04165685 0.039756246
000220 b0 70 c9 bd 2e 07 2c 3e f5 e4 0f be da 3f 0a bd
       -0.098359466 0.16799614 -0.14052184 -0.0337523
000230 df 89 31 3d ea ac 8a 3d 9a 15 05 3e 82 42 1c 3e
       0.043344375 0.06771262 0.12996522 0.15259746

Incption1_conv3_1.weight f4 [4, 1, 1, 1]
000000 0b d6 4a bf e5 ca 63 3e cd 21 df be 5a c5 ed bd
       -0.79232854 0.22245367 -0.43580475 -0.116099074

Incption1_conv3_2.weight f4 [4, 4, 3, 3]
000000 2d 05 e0 bd ff 4c 31 3e 1e a6 fe bd 34 7b aa 3d
       -0.10938487 0.17314528 -0.12434028 0.083242804
000010 dd 21 4c 3d 3c 34 97 3d d6 a5 bb bd e5 29 1e 3e
       0.049836982 0.0738301 -0.0916249 0.15445669
000020 c9 e1 25 3d 06 41 d0 3b 0f a5 2b be 53 81 93 3d
       0.04049853 0.0063554076 -0.16762184 0.07202401
000030 4d c1 9e bc cb 8d 8a bd 22 65 fb 3d ad 71 1e 3d
       -0.019379282 -0.06765326 0.12275149 0.03868263
000040 2e 45 c2 bd 7e f8 b3 bd c3 12 ee 3b 97 f3 e9 3d
       -0.09485851 -0.087876305 0.00726542 0.11423414
000050 61 af 36 bd 31 50 cd bd 69 92 85 bd 3f 30 d5 bd
       -0.044600848 -0.10025061 -0.06522066 -0.10409593
000060 7d 25 6d 3d a2 34 07 3e a3 17 1c be c4 25 5a 3d
       0.05789708 0.13203672 -0.15243392 0.053258672
000070 ea 18 da 3d 3a 57 e0 3c 70 da 84 bd 21 d9 9e 3d
       0.10649283 0.027385343 -0.06486976 0.07756258
000080 7e 02 da 3d 49 63 77 3d b6 e7 d1 bc 09 29 22 bd
       0.106450066 0.06039742 -0.025623184 -0.039589915
000090 40 a0 bb bb bc 40 cc bc f7 1f 3d bd 79 a6 e4 3d
       -0.0057258904 -0.024933212 -0.046173062 0.11164565
0000a0 c9 de f9 3d 74 99 25 bd 3a 10 e4 bc aa e6 a2 3a
       0.12200696 -0.040429547 -0.027839769 0.0012428362
0000b0 7d c9 17 bd e0 f9 80 3d 14 38 2b 3d 72 e4 1c be
       -0.03705739 0.0629766 0.041801527 -0.1532152
0000c0 9d d3 87 bd fd 7d 23 3e af 9a b4 3d 15 af 8e bc
       -0.06632159 0.1596603 0.08818566 -0.01741747
0000d0 7d 65 c8 bd a0 ce 96 bd 7d 04 30 be 81 fc 4a bd
       -0.09784982 -0.07363629 -0.17189212 -0.049557213
0000e0 f9 fc 72 3d e4 bb e3 3d c5 e1 64 3d 4e 9f 2e be
       0.059323285 0.11119822 0.055879373 -0.17052957
0000f0 e8 ed b8 bd 56 d8 e0 bc f2 ee 07 3e 3c f9 a6 39
       -0.09029752 -0.027446907 0.13274744 0.0003184768
000100 15 8a 1a bd 35 08 91 3d 7b df 67 bd 3d d9 01 be
       -0.03772934 0.070816435 -0.056609612 -0.12680526
000110 59 3f c3 3d 5f a8 83 bd 23 6a 08 bd 11 96 3f be
       0.09533567 -0.064285986 -0.033304345 -0.1870959
000120 6c 95 d5 3d 41 c7 cb 3d fd f2 ad 3c f3 52 e8 bd
       0.104288906 0.09950114 0.02123403 -0.11343946
000130 d8 68 3c be 72 f7 f2 bd 5f 9e ed 3d c1 91 d7 3d
       -0.1839937 -0.11863603 0.116024725 0.10525847
000140 81 2a 2e 3e 6b 00 c0 3d 87 d4 8b 3d 56 ac 19 3d
       0.17008401 0.0937508 0.06827646 0.037517868
000150 aa 6a 02 be a7 f7 f7 bd 6d 51 2e be f4 d5 99 3d
       -0.12736002 -0.12107783 -0.17023249 0.075115114
000160 ae b7 d8 bd e2 02 81 bd fa 7d d2 bd c7 3c 69 bd
       -0.10581909 -0.06299378 -0.10277934 -0.056942727
000170 c1 1f 20 be 32 bf d8 bd b3 d3 0e 3d 57 2b 07 bd
       -0.15637113 -0.105833426 0.03486986 -0.033000316
000180 c5 47 c1 3d f7 26 e1 bc 09 fb b9 bd 9e 19 12 bd
       0.09437517 -0.0274844 -0.09081084 -0.03566896
000190 bd 98 d8 bd 08 39 b6 bd af e9 1b be c1 38 91 3d
       -0.105760075 -0.088975966 -0.15225862 0.07090903
0001a0 33 34 c7 bd b0 81 96 3d 2a 88 c9 3d 1f a5 14 3e
       -0.09726753 0.07348955 0.09840424 0.14516114
0001b0 8a 6b a5 bd cc a3 cf 3d 50 76 01 be 36 35 9e 3d
       -0.08077152 0.10138664 -0.12642789 0.07724993
0001c0 24 a2 49 3e 57 fe b2 bc f8 d2 ad bc d3 5e 32 bd
       0.19690758 -0.021849794 -0.021218762 -0.043547463
0001d0 fb f4 cc bd 18 29 06 3d 71 40 15 be f3 f9 18 3e
       -0.10007664 0.032754034 -0.14575364 0.14939098
0001e0 50 f9 dd 3d f8 d2 ed 3d cd 97 27 bd cd fe ec bd
       0.10838568 0.11612505 -0.040916253 -0.11572037
0001f0 0c ce 2c 3d b4 9a 57 3d b1 38 f2 bd 0e 56 63 bd
       0.04218869 0.05263777 -0.11827219 -0.05550199
000200 dd 7a 16 be be c3 94 3a aa ef 27 bd 1e 67 87 bd
       -0.14695306 0.001134984 -0.041000046 -0.06611465
000210 f8 e8 93 bd e1 3b 26 be e7 e6 32 3e 9e e6 3a 3e
       -0.0722217 -0.1623378 0.17470895 0.18252036
000220 6f 9a 31 bd d8 b6 85 bd 73 23 52 bd 12 a0 dc bd
       -0.04336017 -0.06529015 -0.05130334 -0.107727185
000230 53 fd 21 be 46 b1 27 3d bc be c0 bd d5 10 87 bd
       -0.15819292 0.040940545 -0.0941138 -0.06595007

Incption1_conv4_1.weight f4 [2, 1, 1, 1]
000000 7c bb ac bd 8a fc a6 be
       -0.08434197 -0.32614547

Incption1_conv4_2.weight f4 [2, 2, 3, 3]
000000 f4 e5 80 bd 67 b9 aa bb f7 33 26 bd 13 c4 a9 bd
       -0.0629386 -0.00521009 -0.0405769 -0.08289351
000010 6a 0e f8 bd cf eb 33 be 1a f4 3a 3e 1f 3d fe bd
       -0.12112124 -0.17570423 0.1825718 -0.12414002
000020 2c ae 8d 3d a3 2b 8e bd c4 db c4 3b 80 4c 69 3e
       0.06917986 -0.06941917 0.0060076434 0.22783089
000030 64 42 d5 3d 3d 28 5c be d6 ac d9 3d 32 83 58 3e
       0.10413054 -0.21499725 0.10628669 0.21143797
000040 e0 f5 f0 3c 7c 43 29 3e c4 72 79 3e e1 f4 01 bd
       0.029414117 0.1652965 0.24360186 -0.031727675
000050 6b 22 b3 3d e8 68 15 be a0 b6 04 bd 8a fd 1d 3e
       0.08746799 -0.145908 -0.032400727 0.15428749
000060 8c 65 f0 3d 34 21 4b be 36 9f 7f be 36 3a 11 be
       0.117381185 -0.19836885 -0.24963078 -0.14182362
000070 76 16 68 be 07 b4 0e be 76 ea 2b bd d9 7a 32 3e
       -0.22664818 -0.13935862 -0.041971646 0.17429675
000080 1b 2f ac 3c 38 24 38 be 16 48 78 be dd 90 4a 3d
       0.021018555 -0.17982566 -0.24246249 0.04945456

Incption1_bn.weight f4 [11]
000000 ae a9 84 3f 26 7c 76 3f fd b3 81 3f 4d 99 7d 3f
       1.0364282 0.96283185 1.0133053 0.99062043
000010 82 d0 7a 3f 57 f5 76 3f 29 19 78 3f 41 40 84 3f
       0.9797441 0.9646811 0.9691339 1.0332109
000020 21 22 80 3f a8 2e 80 3f 82 4f 7b 3f
       1.0010415 1.0014238 0.98168194

Incption1_bn.bias f4 [11]
000000 26 3a 89 3b 26 ec 12 ba d6 6a 1f 3c a3 43 af 3c
       0.00418784 -0.0005604647 0.0097300615 0.021394556
000010 b2 f8 d3 3a e5 ae 8b b8 9a 45 20 bc 61 a9 b6 bb
       0.001617214 -6.660613e-05 -0.009782219 -0.0055743908
000020 33 c6 15 3c 1c 4d 7a bc 8e 73 3e bd
       0.009141493 -0.015277173 -0.04649692

Incption1_bn.running_mean f4 [11]
000000 32 d1 3a bd cb fa 41 3d c1 e3 f7 bd 71 01 ac be
       -0.04560966 0.047358315 -0.121039875 -0.3359485
000010 19 ea 98 3f 4e 40 88 3e 59 5a 85 bd c3 1f 5b bd
       1.1946441 0.2661156 -0.06511373 -0.053497087
000020 f1 49 cc be 55 48 35 3e da 7f 99 be
       -0.39900163 0.17703374 -0.29980356

Incption1_bn.running_var f4 [11]
000000 03 d0 4e 3e 73 bd 6e 40 cd d6 a0 3f 1c 17 95 42
       0.20196538 3.730313 1.2565552 74.545135
000010 e5 a6 08 42 b1 80 2d 40 22 95 ba 40 74 81 8b 41
       34.162983 2.7109797 5.8307047 17.43821
000020 b6 ec 30 41 c5 68 dd 3f b2 d8 a6 40
       11.057791 1.7297598 5.213952

Incption2_conv1.weight f4 [2, 11, 1, 1]
000000 8d 4b 88 be de f8 bb 3c 90 d5 46 3e cc 87 e6 bd
       -0.2662014 0.022945818 0.19417405 -0.1125637
000010 15 bc 38 bc ad f1 f0 bc f1 22 71 bc 6b e6 31 be
       -0.011275311 -0.029412115 -0.014717803 -0.17373054
000020 ec e5 40 be f0 b5 68 be 1d 22 11 be a6 34 b1 3e
       -0.18837708 -0.22725654 -0.1417317 0.3461048
000030 50 96 58 be fa 3c 49 be b8 9f 0d 3e c1 c5 d8 3b
       -0.2115109 -0.19652167 0.13830459 0.006615371
000040 ef 45 a9 3d 03 84 17 3e 7f e1 1c 3e 55 fb a8 be
       0.08265292 0.14796452 0.15320395 -0.3300425
000050 cf 7f 2d 3d 02 9f 05 3e
       0.042358216 0.13048938

Incption2_conv2_1.weight f4 [4, 11, 1, 1]
000000 20 66 0d 3d 0a 39 d0 bd 0a b3 9a 3e e1 94 a6 bd
       0.034521222 -0.10167129 0.3021472 -0.08133865
000010 b5 79 2e be 40 4b 61 be 2e bb 07 3d 79 be 24 3e
       -0.17038615 -0.22001362 0.033137493 0.16088285
000020 08 e0 a3 3d 71 d7 0d 3e cf f1 77 be ec 77 97 be
       0.08001715 0.13851716 -0.24213336 -0.2958368
000030 63 77 bd bc 87 f5 6f 3e 09 d3 0f 3e c8 5c 3f be
       -0.023128217 0.23433505 0.14045347 -0.18687737
000040 d4 ac a4 bd e6 54 74 be 0b 07 4b be 01 cb 21 3d
       -0.08040777 -0.23860511 -0.19826905 0.03950024
000050 8e ac 40 3e e0 ca 8b 3e 57 20 95 be 12 67 3a 3e
       0.18815824 0.2730322 -0.29126236 0.1820338
000060 1c 81 53 be 3f 43 c3 3d a7 2e 81 3e 2f 2f 6d bd
       -0.2065472 0.095343105 0.25230905 -0.057906326
000070 07 20 8b 3e 4f ef 9e be bf c7 a5 bd 41 14 15 3e
       0.27172872 -0.31041953 -0.08094739 0.14558508
000080 35 e4 4d bd f2 09 b8 bd 08 84 eb bd 3f 73 58 3e
       -0.050266463 -0.08986272 -0.11499792 0.21137713
000090 d0 86 ef 3d c0 07 ce 3d ef 91 19 be 52 11 6b be
       0.11695635 0.10060072 -0.14997075 -0.22955826
0000a0 b5 26 f3 3c 7a d9 e2 3d e3 ed 18 be e2 e6 97 bd
       0.029681543 0.110766366 -0.14934497 -0.07417084

Incption2_conv2_2.weight f4 [4, 4, 3, 3]
000000 97 89 e0 3d d0 87 f7 3c ee 17 4d bc 94 fd 0d bd
       0.10963743 0.030216128 -0.012517912 -0.03466566
000010 bc b7 13 be 53 dc fa bd 94 c0 8b bd e5 89 c7 bd
       -0.14425558 -0.12249055 -0.06823841 -0.09743098
000020 99 d7 b3 3d ea 06 a4 bd 55 73 69 bd a6 af 0b 3e
       0.08781356 -0.08009131 -0.056994755 0.13641223
000030 f3 d4 7d 3d 1c d2 01 3e 9b 63 95 bd 7a 11 f2 bd
       0.061970662 0.12677807 -0.07294389 -0.1181974
000040 47 86 1c bd d7 22 1d be 05 14 d0 bd e3 79 b4 bc
       -0.038213994 -0.15345322 -0.101600684 -0.022030776
000050 ce a1 88 bd 3b 42 00 be 7d e2 d3 3d b7 0c 12 3e
       -0.06671487 -0.12525265 0.103459336 0.14262663
000060 3f 85 00 3d 65 dd 08 bc 33 01 23 be c7 2a bf bd
       0.031377073 -0.008353566 -0.15918426 -0.09334331
000070 21 06 ec 3c 99 9e 27 3d 87 21 af bb 47 42 0b bd
       0.028811516 0.040922735 -0.005344573 -0.033998754
000080 f7 e3 07 3e 0b cc b2 bd 2f 02 f8 3d 58 79 2e bd
       0.13270555 -0.08730324 0.121097915 -0.04259619
000090 11 12 b4 bc cb 23 3f bd c4 e2 d3 3c 49 80 2f bd
       -0.021981271 -0.046664994 0.025864966 -0.04284695
0000a0 16 c9 f6 3d e5 24 aa bc c7 22 0f 3e 61 9a 59 3e
       0.12050073 -0.020769546 0.1397811 0.21250297
0000b0 1a 51 8f bd 7f 92 11 be 20 95 cd 3d 99 4e bc 3d
       -0.06997891 -0.1421604 0.10038209 0.09194679
0000c0 3a e2 10 be 24 b9 88 bc 56 77 4e be 31 ac 1d be
       -0.14148799 -0.016689844 -0.2016271 -0.15397717
0000d0 f7 50 27 3d f8 04 1b 3d fa c5 13 3d 61 90 1c bd
       0.0408487 0.037846535 0.036077477 -0.038223628
0000e0 30 3f 17 3e d9 1d 57 3c ad 4c e9 bd 7e cf ad bc
       0.14770198 0.013129675 -0.11391578 -0.021217104
0000f0 cc 63 18 3d f5 67 62 3d bb c1 db bd 06 66 a5 3d
       0.03720455 0.055274922 -0.107303105 0.080761
000100 47 5a 98 bd 18 8c fe bd 4a 3c d3 bd 11 19 14 3e
       -0.07439094 -0.124290645 -0.103142336 0.14462687
000110 bf 04 11 3e 09 ff 09 3e de 3b d8 3d ee 4f d6 3d
       0.14161967 0.13476194 0.10558294 0.10464464
000120 9f c0 27 bd ef cc 83 bd c7 2d 89 3d 0d 1b 76 bd
       -0.040955182 -0.06435572 0.066981845 -0.06008439
000130 42 13 eb bd ba 17 31 bd d5 69 68 3d bc 72 c0 3d
       -0.114782825 -0.043235518 0.056741554 0.09396884
000140 36 b8 93 bd 20 ef 04 be 94 24 50 3c b3 9b 06 be
       -0.0721287 -0.12981844 0.012704033 -0.13145332
000150 73 e2 ca bd 95 08 9f 3d 3d 2e c7 bc c8 87 1c 3e
       -0.09906473 0.07765309 -0.02431404 0.15286171
000160 db 18 32 3e 40 03 65 3d 05 67 67 3d d2 06 45 3d
       0.17392294 0.055911303 0.05649473 0.048102207
000170 a8 b4 4e 3c 82 6e 37 bd ce 2f 79 bc dc 14 81 3d
       0.012616314 -0.044783123 -0.015209151 0.06302807
000180 05 1c 22 3e bc 31 ff bc 40 bf 8f bd 05 ba e9 bb
       0.15831001 -0.031151645 -0.070189 -0.007132771
000190 3c 10 55 bd 1d 51 17 3d 18 95 05 3e 51 ac 05 3e
       -0.052017435 0.03694259 0.13045156 0.13054015
0001a0 c0 99 cb 3d 40 ce f0 bd 08 85 b1 bd b2 1d 69 bc
       0.09941435 -0.11758089 -0.08667952 -0.014228271
0001b0 87 75 3d bd 02 b9 39 3c 4d c7 0e be 0b 8a 65 3d
       -0.04625466 0.011335613 -0.13943215 0.05603985
0001c0 15 ee ce bd cb 4d 9d bd 9f 46 1e be 31 28 05 3e
       -0.10104004 -0.076808535 -0.15456627 0.13003613
0001d0 fb cd 1d be 1d e7 0a 3e 8c 0a e9 3b 69 e7 b4 b9
       -0.15410607 0.13564725 0.007111853 -0.0003450469
0001e0 61 f0 c6 3d 7e f1 bb bc 74 d1 fb 3d c7 85 10 3e
       0.097138174 -0.0229423 0.122958094 0.14113532
0001f0 62 9c f2 bd 3c 2f da 3d 49 7c 25 bb 39 94 5f 3c
       -0.11846234 0.106535405 -0.0025251082 0.013646179
000200 53 89 48 bb ac a5 1e 3d 24 6a af bd 5d 20 b4 bc
       -0.003059943 0.038732216 -0.085651666 -0.021988088
000210 eb 96 33 3e 9f 1a 00 3e 9a a5 c1 3b 0b fb 37 be
       0.1753804 0.12510155 0.005909634 -0.17966859
000220 4b 6d e1 3c a9 f0 c5 bd e3 71 3c 3e 4a 97 5a bd
       0.027517935 -0.09665043 0.1840282 -0.053366937
000230 31 5f 4e 3d 3c 6f 11 bd 03 72 8a 3c f2 99 2d 3e
       0.05038375 -0.035506472 0.016900068 0.16953257

Incption2_conv3_1.weight f4 [4, 11, 1, 1]
000000 15 a4 45 3d 5a bd 2f 3e 4d a0 8e 3e 56 07 75 3e
       0.048252184 0.17162076 0.27856675 0.2392858
000010 d2 a8 0d be 4b bc 82 bd b6 d5 08 3e 44 c5 b5 bd
       -0.13833931 -0.0638357 0.13362774 -0.08875516
000020 06 b9 1c 3e 2e 8f 18 bd 40 30 51 be 94 7e eb 3d
       0.15304956 -0.03724592 -0.20428562 0.11498752
000030 d7 d0 68 3d d3 ce 2a 3e 90 2b 92 3e 2f ce 3a 3e
       0.05683979 0.1668046 0.2854886 0.18242715
000040 63 cf 8f 3e 94 bf dc bb 86 fe 86 be a3 dc 4f be
       0.2808791 -0.006736705 -0.2636606 -0.2029901
000050 ae 44 49 be 57 42 82 be f6 ba ea bd f0 39 76 be
       -0.19655105 -0.25441238 -0.11461441 -0.24045539
000060 df 79 88 be 72 7b 07 be ef 32 89 be e1 34 22 be
       -0.2665548 -0.13230684 -0.26796672 -0.15840484
000070 41 eb 0a 3e 8b a9 98 3e d2 c4 c7 bd ab b9 cf bd
       0.13566305 0.2981685 -0.09754337 -0.10142835
000080 22 4c 30 3e 0a 45 2b be 13 29 0b be 37 b3 42 3e
       0.17216542 -0.16725555 -0.13589887 0.19013678
000090 6c 99 9b be 7f ec fe 3c d3 b4 93 3e 60 7e 43 3d
       -0.3039049 0.03111863 0.28848895 0.047727942
0000a0 f7 67 0e 3d 69 af 31 be 08 32 00 bc 8a 35 89 3c
       0.034767117 -0.1735207 -0.007824428 0.016749162

Incption2_conv3_2.weight f4 [4, 4, 3, 3]
000000 cb c5 02 3d b5 bc 9a 3d fc a6 30 3e 21 e1 0d be
       0.03192691 0.07555524 0.172512 -0.13855411
000010 a6 52 66 3b 08 0e b3 bd 9a 16 00 be 8c d9 99 bc
       0.0035144477 -0.087429106 -0.12508622 -0.018780492
000020 f0 7f 14 be d3 0d 11 3e 95 55 d8 3c f3 25 77 bd
       -0.1450193 0.1416543 0.026407996 -0.060338926
000030 39 7e 02 3e 72 10 46 be 88 ac 80 bd 18 7f 20 3d
       0.12743463 -0.19342211 -0.06282908 0.039183706
000040 b6 3b e4 bd 2e ea d6 bd 66 82 0d bd 1e 5f dd 3d
       -0.111442015 -0.10493885 -0.034548186 0.10809158
000050 a8 a8 0e 3e 19 f2 d1 3d 5f 90 c2 bd 2a 49 c1 bd
       0.13931525 0.102512546 -0.09500193 -0.09437783
000060 03 a4 95 3d 4b 0b 59 3d 10 72 fd bc ac a5 84 3d
       0.073066734 0.052989285 -0.030938178 0.06476912
000070 17 30 0a be dd d8 27 bd 0f 52 36 3e 6c b8 b5 bd
       -0.13494907 -0.0409783 0.1780474 -0.08873066
000080 7e 8d 93 3c 25 12 0a be de 11 d5 bd 12 de 04 bd
       0.018011805 -0.13483484 -0.104037985 -0.032438345
000090 62 5c 14 be be 20 29 bd ac b7 95 3d 7c 41 4f be
       -0.14488366 -0.04129099 0.07310423 -0.20239824
0000a0 26 1c 3d 3d ff 27 f8 bd c7 ec c2 bd b5 1a 22 3d
       0.046169423 -0.12117004 -0.09517818 0.03957625
0000b0 71 f3 e2 3d c0 54 fe bc 7a c0 6d bd 52 c7 0e be
       0.11081589 -0.031046271 -0.058044888 -0.13943222
0000c0 e6 d6 7e bd 4f 1f 06 be aa 55 33 bd b7 d4 27 3d
       -0.062216662 -0.13097881 -0.043782867 0.040974345
0000d0 b4 74 21 be ce 52 f9 3d f7 8c fb 3d 5a ef 19 be
       -0.15767175 0.12173997 0.12282746 -0.15032712
0000e0 17 16 a3 bd d7 25 71 3d 2b af 23 bd ad 3e 4c bc
       -0.07963198 0.058873978 -0.039961975 -0.012466115
0000f0 ae cc 8c bd e9 f1 18 3e 9b 36 b5 bd ca 5a 1b 3e
       -0.06874977 0.14936031 -0.08848306 0.15171352
000100 60 52 87 bb fe 10 ab 3c 54 76 03 3e 5d cb 45 bd
       -0.004129693 0.020882126 0.12838107 -0.048289645
000110 9f 28 da bd 20 11 ce bc 9c 22 f6 3d f1 3f 0a be
       -0.10652279 -0.02515465 0.1201832 -0.13500954
000120 2b 30 59 3d 7a d0 23 be 9a eb dc 3d 9c 98 8a 3d
       0.053024452 -0.15997496 0.10787125 0.06767389
000130 7a 2c 70 3b 93 10 b2 3d d3 88 89 3c 87 01 c0 3d
       0.0036647604 0.086945675 0.016788876 0.09375291
000140 ac 14 cc bd ee f9 24 3b c5 a6 95 3d b7 bd 1f 3e
       -0.0996488 0.0025173384 0.073071994 0.15599714
000150 b4 c8 c3 3d f7 c3 f7 bd 83 12 f9 3d bc f1 f2 3a
       0.095597655 -0.12097924 0.12161734 0.0018535177
000160 98 7c b7 bc bf 31 eb bd 3b 13 16 bd 27 aa 02 3e
       -0.022398278 -0.11484098 -0.036639433 0.1276022
000170 8d c0 6f 3c cd e5 fe bd ab e4 a1 3d 1a c6 84 bd
       0.01463331 -0.12446175 0.07904943 -0.064830974
000180 32 a6 15 3e 99 a8 f1 bd a4 68 a2 bd e5 76 0d be
       0.1461418 -0.117997356 -0.07930115 -0.13814886
000190 96 49 a5 bd 13 7e 7b 3d 6a 76 50 3e 2c 8b 19 3d
       -0.08070676 0.06139953 0.20357671 0.03748624
0001a0 e7 24 2b 3e af c3 e0 3c c1 23 8f 3d 2c e3 15 3e
       0.16713296 0.02743706 0.069892414 0.1463744
0001b0 c3 93 1c 3e 0a 80 cf bd 74 75 23 3e df 1e ba 3d
       0.15290742 -0.101318434 0.15962774 0.090879194
0001c0 d8 5f 97 bd e4 05 c3 bd c0 88 ff bd 35 6d 42 3d
       -0.073913276 -0.09522608 -0.12477255 0.04746743
0001d0 31 29 0c be 23 14 b1 3d 62 ee c8 3d 08 b4 12 be
       -0.13687588 0.08646419 0.09811093 -0.14326489
0001e0 97 7f 2b 3d 5b 34 0d 3b da 6c aa 3d 53 8e 87 3d
       0.041869726 0.00215461 0.08321543 0.06618943
0001f0 08 81 36 be 51 d4 22 3e 13 e1 f5 3d e0 d0 2a 3d
       -0.17822659 0.15901305 0.1200582 0.041703105
000200 97 eb 19 be 06 8f dd bc cf 1d 0a bd b4 53 c8 bc
       -0.15031277 -0.027045738 -0.033719834 -0.024453975
000210 50 16 f8 3d 05 dc a3 3d 4f f3 08 3e b6 7d 6f bd
       0.12113631 0.0800095 0.13374065 -0.058469497
000220 f4 eb d2 3d 5f 61 8f 3d d2 a5 30 be 02 92 18 be
       0.10298911 0.07000994 -0.17250755 -0.14899448
000230 5b f4 69 bd e7 26 82 3d 16 2f 36 be 66 6e 2e be
       -0.0571178 0.06355076 -0.177914 -0.17034301

Incption2_conv4_1.weight f4 [2, 11, 1, 1]
000000 cc 1a a2 3d e9 63 18 3e 59 ca 71 3e a1 22 6f be
       0.07915267 0.14881863 0.23612346 -0.23353054
000010 58 d2 76 be af ad ed 3d 6c 4f 9b 3e ab 83 21 3e
       -0.24103677 0.11605393 0.30334032 0.15772884
000020 e0 df ba 3d fd 60 99 3d 12 b0 97 3e 1f a3 95 be
       0.09124732 0.07489202 0.29626518 -0.29226014
000030 c6 10 01 be 5b 85 30 3e 5e bb 75 be d0 16 3c be
       -0.12604055 0.17238371 -0.23997256 -0.18368077
000040 ff bf 33 3e 38 5c 10 3e 1c 21 a9 3d 4f dd 79 bd
       0.1755371 0.14097679 0.08258268 -0.061002072
000050 ee df 07 bd 3b 81 8e 3e
       -0.03317254 0.2783297

Incption2_conv4_2.weight f4 [2, 2, 3, 3]
000000 4e d7 20 be dd d3 86 3b 9c 52 0b 3e 69 bb 06 be
       -0.15707132 0.0041146115 0.13605732 -0.13157429
000010 56 88 73 3e 6a 16 e0 bd ae d3 47 bd 2e 03 51 bd
       0.23782477 -0.10941775 -0.048785858 -0.051028423
000020 f3 ad 06 be a9 8f 87 be 38 1d 2a 3e cf 4e 9f 3d
       -0.13152294 -0.26476792 0.16612709 0.077787034
000030 44 00 55 be 25 9d 0b be e6 9a 73 3e c9 f9 93 3d
       -0.20800883 -0.13634165 0.23789558 0.07225377
000040 51 03 90 3d d9 45 2d be a1 c6 cb bd 36 ad 88 bd
       0.070318826 -0.16921176 -0.09949995 -0.06673662
000050 32 53 c0 bc a2 59 42 be 37 49 ab 3a 1d fb e7 3c
       -0.02347717 -0.18979505 0.0013068084 0.028317982
000060 4d b3 87 bb b1 a8 67 3d 36 16 66 bd 8f ef 60 3d
       -0.0041412474 0.05655736 -0.056173526 0.05491596
000070 bd c8 91 3d fe 84 00 be dc b9 5e be 52 f8 ff 3d
       0.07118366 -0.12550732 -0.21750587 0.12498535
000080 19 ef 81 3d ab 6c c2 bd b9 2b 75 3e fe 32 c7 bd
       0.063444324 -0.09493383 0.2394246 -0.09726523

Incption2_bn.weight f4 [12]
000000 f3 69 81 3f 3f 62 7d 3f 37 d6 7f 3f 2b 8f 7d 3f
       1.0110458 0.98978037 0.9993624 0.9904658
000010 e2 10 7f 3f cb 3a 74 3f 3c 3e 7b 3f 86 10 83 3f
       0.99635136 0.9540221 0.9814184 1.0239418
000020 d7 be 78 3f 01 92 80 3f 52 ce 82 3f b6 0f 76 3f
       0.971662 1.0044557 1.0219214 0.96117723

Incption2_bn.bias f4 [12]
000000 79 e6 bf 3c f4 6e d0 3c 44 64 18 3c 54 89 87 bc
       0.023425328 0.025443532 0.009301249 -0.016544975
000010 d7 23 0f bd 3f 16 1c bd 87 d2 2d 3b 9f 4b 89 ba
       -0.03494629 -0.038107153 0.002652319 -0.0010474807
000020 f3 6d b2 bc 2f 32 05 bb 66 78 1a 3d 3e a3 03 3c
       -0.021780943 -0.0020324101 0.037712477 0.008034525

Incption2_bn.running_mean f4 [12]
000000 7f de 0e be be 14 4c bc df 87 44 bc 5e b4 01 bb
       -0.13952063 -0.012456117 -0.011995285 -0.0019791345
000010 6b b0 76 bc 8a 9e c3 bc 15 e7 e1 bd 0d 1c ac bd
       -0.01505671 -0.023879308 -0.110304035 -0.08403788
000020 ee 54 a5 3d 98 5f 47 bd d9 1a 6a bd 4d b6 c7 bd
       0.0807284 -0.04867515 -0.05715451 -0.09751568

Incption2_bn.running_var f4 [12]
000000 7c c2 cd 3e b7 19 15 3e 3c 80 9c 3d bc 18 80 3d
       0.40187442 0.1456059 0.07641646 0.06254718
000010 e9 10 4b 3d c0 56 44 3d 50 55 b4 3d 41 9e 92 3d
       0.049576674 0.047934294 0.088053346 0.07159091
000020 ad e7 a7 3d 88 ce 59 3d 0c 64 2c 3d 24 dc 4e 3d
       0.081984855 0.05317548 0.0420876 0.05050291

conv1.weight f4 [16, 12, 5, 5]
000000 5a 4d 98 3c 4b 1a 3f 3c 35 21 4d bd 38 a7 d9 3c
       0.018591572 0.011663984 -0.050080497 0.026568994
000010 9d b5 81 bd 7a aa 91 bc bc 08 ef 3a be 3f 0d bd
       -0.06333468 -0.017781485 0.0018236856 -0.034484617
000020 26 b8 97 3d 47 a0 40 3c b9 33 3e 3d c5 b9 ac bc
       0.074081704 0.011756963 0.046436045 -0.021084676
000030 c9 53 73 3d a4 6b ad bb ab 91 ee bc dd fb 8b 3c
       0.059406076 -0.005292373 -0.029122194 0.017087871
000040 fa ba 10 3d 35 1b 6f 3d 4c 37 a5 bc 73 13 d7 bc
       0.035334565 0.058375556 -0.02016797 -0.026254391
000050 af 43 2c 3d d0 d6 5f 3d 37 89 82 3d 2b be 97 3d
       0.042056736 0.05464822 0.06373828 0.074093185
000060 ee 37 b1 3c 73 ab a6 3c a8 82 b8 3c 43 0b d1 bc
       0.021633115 0.020345425 0.02252324 -0.025518065
000070 f4 f2 3d 3d 1f 77 fd 3c 1f 38 b5 3c 99 e0 27 bd
       0.046374276 0.03094059 0.022121487 -0.040985677
000080 32 2e 19 bd 94 05 62 bd 8e 01 83 bc 42 1c b1 bc
       -0.03739757 -0.0551811 -0.015991952 -0.02161992
000090 aa 3d bb bd b7 d7 10 bc 4b 93 5b bd d3 f9 87 3c
       -0.09142621 -0.008840493 -0.053607266 0.016598618
0000a0 93 11 fa bc fe 25 8f bd 65 b8 41 bd 12 43 5f bd
       -0.030525958 -0.06989668 -0.047294993 -0.054507323
0000b0 33 25 60 3c 61 00 af bd 40 05 3b bd 51 06 18 bd
       0.013680744 -0.08544994 -0.045659304 -0.0371154
0000c0 be d0 b6 bd ff 1e 57 3b 20 cd 89 bd 95 6e 97 bd
       -0.08926533 0.0032824872 -0.067285776 -0.07394139
0000d0 ef 7e 4d bd 3d 74 0f 3c 28 7f 9d 3a cb ea eb 3a
       -0.05016988 0.008755741 0.0012016045 0.0017999051
0000e0 7f 86 d4 bc 48 2c 14 bc db c1 67 3c 4d 8d 95 bc
       -0.025943039 -0.009043761 0.01414534 -0.018255854
0000f0 06 fc 1a bd 37 13 af bd d2 bd d0 bc c5 8f a0 bd
       -0.037838005 -0.08548587 -0.025481138 -0.07839922
000100 f5 2c a7 3a 69 8b 31 bd ae ea 82 bd 64 c0 d9 bb
       0.0012754487 -0.043345843 -0.06392418 -0.006645249
000110 ab 04 83 3c 3c ed da bc c7 93 fc bc 40 a6 69 3d
       0.015993437 -0.02672445 -0.030832184 0.057043314
000120 ed 31 32 bd fe 4d 9c bd d4 b9 94 3c c6 00 3a 3d
       -0.043504644 -0.07632063 0.018155016 0.045410894
000130 dc f7 ca 3c e2 ca cd bc 79 f9 98 bd 3b 0c b3 3c
       0.024776392 -0.025121156 -0.07469458 0.021856418
000140 00 02 90 3d 13 b9 94 bb 15 70 c2 39 bf 49 d6 bc
       0.070316315 -0.004538664 0.0003708607 -0.026158212
000150 e7 71 a5 bc 3c 92 59 b9 31 ea 67 bc 9b 23 7d 3c
       -0.020195914 -0.00020749209 -0.014154957 0.015450384
000160 2f a4 87 bc 90 40 3a 3b 7d 6f 26 3d 6c b9 75 3c
       -0.016557781 0.002841983 0.040633667 0.014997821
000170 cf ae 88 3c fa 6e cc 3a be 50 47 3d e2 ea 45 bc
       0.016684918 0.0015597038 0.048660986 -0.012079926
000180 87 56 47 bd df e6 82 bd 73 6f a6 3c 85 6a 89 bc
       -0.048666503 -0.063916914 0.020316815 -0.016774425
000190 02 de b2 bc 9d f4 83 bb 17 46 7e 3c 74 0a 74 3d
       -0.021834377 -0.004026963 0.01551964 0.05958028
0001a0 39 dd d2 3c 38 43 07 bd aa 49 2d bd 99 0e 02 bd
       0.025740253 -0.03302309 -0.04230658 -0.031752203
0001b0 a7 80 9b 3a b0 a0 5e 3d 3b 27 14 3d 3e 5d 91 3d
       0.0011863903 0.054352462 0.036170226 0.07097863
0001c0 44 16 be 3b 89 cf 49 bc 22 f0 f5 3b 34 e8 c8 bd
       0.005800994 -0.012317547 0.0075054327 -0.09809914
0001d0 88 0c b2 bc 99 14 a7 bb 31 ff 12 bd 9f 2e 6a bd
       -0.021734491 -0.005098891 -0.0358879 -0.057173368
0001e0 92 b4 82 3d 76 df 68 3d 4e 75 50 3d 6b e4 bd 3d
       0.06382097 0.056853734 0.05089312 0.09272083
0001f0 5d cf 14 3c a1 02 1d 3c d9 96 08 3d 44 3d 68 3a
       0.009082642 0.009583146 0.033346985 0.0008859227
000200 03 c4 ce ba df 61 5a bd 61 ca 56 3c 94 a7 0c bd
       -0.0015774969 -0.053315993 0.013109774 -0.034339502
000210 88 89 80 3c 17 19 93 3d 27 7c 54 bc 3c d8 99 3b
       0.01569058 0.0718252 -0.012969053 0.0046949666
000220 f7 40 6c 3d cd 3f 55 bc dd 3f 56 bb b9 be 8d 3d
       0.057679143 -0.0130157 -0.0032691874 0.06921143
000230 3e 8a 09 bd e4 9b 0d bd 75 bd 3c bc 7c 93 87 ba
       -0.033579104 -0.034572497 -0.011519779 -0.0010343636
000240 53 4a a1 bc 59 a7 84 bc c4 a0 4c 3d ed fd 37 3d
       -0.01968876 -0.016193079 0.049958006 0.044919897
000250 f6 40 a2 3b 18 78 a1 bc 8c 73 b9 bb 16 c5 af bc
       0.0049515916 -0.019710585 -0.005659526 -0.021456283
000260 b8 63 8d bc 85 86 1b bd 05 a6 24 3d e6 71 12 bd
       -0.017259464 -0.037970085 0.04019739 -0.035753153
000270 d1 55 82 bd 9f 43 8f bd f4 23 b0 3c e8 3a c5 bc
       -0.063640244 -0.069953196 0.021501519 -0.02407594
000280 b7 19 95 bb e3 76 6f 3d 24 2f ce 3c 26 db 5b 3d
       -0.0045501846 0.05846299 0.025168963 0.053675793
000290 7d d5 26 bd 1d 1a 32 bd e6 63 df bc cb 91 24 3d
       -0.040730942 -0.043481935 -0.027269315 0.0401781
0002a0 83 3d 00 3c 87 0f 3f bd 93 f4 0d 3b 78 dc 79 bd
       0.007827166 -0.046645667 0.002166067 -0.06100127
0002b0 88 e6 01 bd 3a 8a bc bc cd 92 21 3d a7 aa 12 3c
       -0.031713992 -0.02301513 0.03944664 0.0089518195
0002c0 1b fb 98 bb db 1f 90 3c 17 12 77 bc fd f7 a0 3c
       -0.004668606 0.017593315 -0.015079997 0.0196495
0002d0 09 8c bf 3c 3a 72 bc 3b e9 e8 16 bd 44 66 4c 3d
       0.023382204 0.0057509216 -0.036843214 0.049902216
0002e0 42 94 91 bc 6a 6e 20 bd 05 6e c5 3c 99 96 36 3d
       -0.01777089 -0.0391678 0.024100313 0.044577215
0002f0 2b 8d 86 3d 5b b9 a2 3c af 6e f7 bb fe c8 39 3d
       0.065698944 0.019863775 -0.0075510363 0.045357697
000300 24 04 7e 3d 5e 72 14 bd cc 67 59 3b 39 29 21 bc
       0.062015668 -0.03624188 0.003317344 -0.009836488
000310 c0 5a 05 3d ba 15 19 3d 66 e8 72 3c e4 94 ec 3b
       0.03255725 0.037374236 0.014825916 0.0072198976
000320 3e d0 e6 3c 81 7c 8b bb 68 3d ff bc 6c 34 58 3d
       0.02817547 -0.0042567854 -0.03115721 0.05278437
000330 5d e8 34 bc 62 b2 05 bd 0b 90 31 bc 0b 5e 88 bc
       -0.011041728 -0.032640822 -0.010837565 -0.016646406
000340 0e 42 9e bd 05 3b 5b 3c cb c5 08 bd 25 e7 a3 bc
       -0.07727443 0.013380771 -0.033391755 -0.02000768
000350 85 9b 8e 3c 0e 77 cf bc 66 fc a0 bc 66 84 04 bc
       0.017408142 -0.025325324 -0.019651603 -0.008088207
000360 b8 23 d1 bb 8e 0b ff bb df 5b 2c bc bf 58 12 3d
       -0.006382432 -0.00778336 -0.010519951 0.035729166
000370 e2 0c b8 bc 4b 42 2b bc 1d 1a a8 3c b6 d6 be 3c
       -0.02246708 -0.010452817 0.020520264 0.023295742
000380 b5 43 4e 3d 1a 2d ef bc f3 b3 1c 3d 99 3f 7d 3d
       0.05035754 -0.02919631 0.03825755 0.06182823
000390 17 33 07 3d 27 9d 03 bd 4f b8 9c bc 5d 75 8a bd
       0.033007707 -0.032132294 -0.019130854 -0.067606665
0003a0 30 cb 27 bd 51 65 1e 3d 28 67 0c bd 2d e7 6a ba
       -0.04096526 0.03867084 -0.034278065 -0.00089608395
0003b0 f1 4e 12 bd 97 33 ec bc b0 63 77 bd 19 32 69 3c
       -0.035719816 -0.028833194 -0.060397804 0.014233136
0003c0 c9 ad 84 bd dc c2 3f bd 0d 4b 97 bd 3c c2 2d bd
       -0.064784594 -0.04681669 -0.07387362 -0.042421564
0003d0 3e e8 28 3d f2 17 9a 3b c3 27 8c bd ba c9 61 bc
       0.04123711 0.0047025615 -0.068435214 -0.0137810055
0003e0 17 e5 a3 bb 0f b8 6c bd d6 e1 1c 3d a6 e1 15 3d
       -0.005001675 -0.05779272 0.03830131 0.03659215
0003f0 e7 3e 06 3d 6f 22 94 bc 70 98 0d bc 79 ae 7e bb
       0.032774832 -0.018082825 -0.008642301 -0.0038861318

bn1.weight f4 [16]
000000 9b af 75 3f 1e b7 7b 3f 04 35 76 3f 9e 7a 7c 3f
       0.9597108 0.9832629 0.96174645 0.986246
000010 21 3c 78 3f 52 d7 7a 3f 9d cd 7d 3f 6b 83 81 3f
       0.9696675 0.979848 0.99141866 1.011823
000020 7d b5 78 3f 35 d2 6c 3f 92 e9 80 3f 3c d8 77 3f
       0.9715193 0.9250825 1.007128 0.9681432
000030 0b ab 70 3f a8 45 84 3f 45 ce 73 3f d1 4d 78 3f
       0.9401099 1.0333757 0.9523662 0.9699374

bn1.bias f4 [16]
000000 96 64 18 3d 9c ff 95 3c f0 3e a6 bc 31 8e 98 3d
       0.0372053 0.01831036 -0.020293683 0.07448996
000010 24 47 d4 3b 48 7e 3e 3c 8a 3c 38 3b cf f0 a4 3d
       0.006478207 0.0116267875 0.0028112256 0.08053743
000020 8f 0d 52 bb 93 3e 81 bb 9e 58 f8 3c 5d 13 5f 39
       -0.0032051539 -0.003944227 0.030315693 0.0002127415
000030 9e bd 3d bc 93 f8 06 3d 0a 0d 1f 3d 06 c2 66 3c
       -0.011580853 0.032951903 0.038830794 0.014084345

bn1.running_mean f4 [16]
000000 c1 05 de 3e 2b d6 67 3e 4b 2f d2 3d 5a 2c 35 3e
       0.43363765 0.22640292 0.10262927 0.176927
000010 03 94 95 3e e4 13 5e 3e 45 03 e2 3c 8f 7a ca 3d
       0.29214486 0.21687275 0.02758945 0.098866574
000020 29 b9 92 3e 80 de b3 3e e7 4c 2b 3e 3b 32 db 3d
       0.2865689 0.35130692 0.16728555 0.1070294
000030 e1 56 02 3e be 1e ee 3d 30 b0 bb 3e 8d 7e 9c 3e
       0.12728454 0.11626957 0.36657858 0.305653

bn1.running_var f4 [16]
000000 85 24 29 3f ab 71 c6 3d fe bb 89 3e d2 d7 28 3d
       0.6607135 0.09689649 0.2690124 0.041221447
000010 d2 a2 9f 3e de d7 27 3e 96 a3 7b 3d 4c 32 cb 3d
       0.3117891 0.1639094 0.061435305 0.09921703
000020 cc 85 43 3d af 6b 73 3e 27 d2 06 3e 7c 49 ab 3d
       0.04773502 0.23771547 0.13166104 0.083636254
000030 e9 a5 78 3d 39 5c 90 3d 53 69 14 3f e4 fa 58 3e
       0.0607051 0.0704884 0.5797321 0.21189457

conv2.weight f4 [16, 16, 5, 5]
000000 88 d4 72 bd 60 24 00 bb fa b3 ed 3b 0a 6d 01 bd
       -0.059284717 -0.0019552931 0.007254121 -0.03159813
000010 b4 0c 15 bd 68 f9 24 bd 56 96 5a bc dd c3 81 3b
       -0.036389068 -0.040276915 -0.013341507 0.0039601163
000020 10 2e e5 bc b8 b4 bd 3c ca 5e ca bc e8 24 c7 3b
       -0.027976066 0.023157462 -0.024703402 0.0060773976
000030 78 bd c8 3c bb 3f 9b bb 98 a9 13 3a 16 fa 35 3d
       0.024504408 -0.004737822 0.00056328764 0.044427954
000040 40 05 17 bc be a6 cf bb 3c 81 04 3b 47 d4 ea bc
       -0.00921756 -0.006337016 0.0020218631 -0.028665675
000050 fa 14 81 3c 3b ba 72 3d d1 4b 50 3c 1a f0 82 bc
       0.015757073 0.059259634 0.012713389 -0.01598363
000060 2e e4 ab 3b d0 4e 54 bd 41 47 33 3d 98 1e 3a 3d
       0.005245707 -0.051832974 0.043769125 0.045439333
000070 be 0e ce bb d6 ec d7 bc 19 45 a5 bc de 0b 37 3d
       -0.0062883785 -0.02635805 -0.02017455 0.04468905
000080 28 76 cf bc f5 92 ee 3b 7e 47 71 bd 62 ac 6f 3b
       -0.025324896 0.0072807022 -0.05890607 0.0036571254
000090 5e dd 0c 3c e1 ff a6 3b f0 cc 1a bc cf ff c6 ba
       0.0085977 0.005096421 -0.009448275 -0.0015182438
0000a0 ba 46 a8 3c 41 2a 98 bc 5d ce e8 bc 92 a6 79 bd
       0.020541538 -0.018574836 -0.028418714 -0.06094987
0000b0 ee a1 57 3c 97 f8 08 bd d7 80 b2 bb 2e 3d f6 bc
       0.013161166 -0.0334402 -0.005447488 -0.03005847
0000c0 09 9f 31 bc 14 c8 5f bd a8 8d 14 bd d7 49 c2 bc
       -0.01084114 -0.05463417 -0.036267906 -0.02371685
0000d0 75 f0 58 bd a7 ec a9 bc f9 ad bc 3a a2 69 e9 3c
       -0.052963693 -0.020742727 0.001439511 0.028492752
0000e0 86 d9 ea 3c 95 e2 dc bb 4d 94 89 3c 32 ff 0c bd
       0.028668176 -0.006740878 0.016794348 -0.03442306
0000f0 2c e9 a9 3c 12 fb 13 bc 01 e9 85 3b 24 b9 31 bc
       0.020741068 -0.009032028 0.004086614 -0.010847364
000100 0b 4b d6 3c c9 7b 89 3b 02 76 e4 3c 3f 01 7b 3b
       0.02615883 0.0041956645 0.027888302 0.0038300303
000110 a7 63 84 bc f0 b5 15 bd f5 d0 c4 bc d4 8a 12 3d
       -0.0161608 -0.036550462 -0.02402542 0.035776928
000120 5e be 9d 3c cd 88 fe 3c 78 5b 27 3d c8 8a 72 3c
       0.019255813 0.031071091 0.040858716 0.014803596
000130 89 72 98 bc c6 c3 56 bb a5 e9 ed bc cd 2e 89 bc
       -0.018609302 -0.0032770499 -0.029042074 -0.01674595
000140 7e 93 18 3c 2c 83 a1 3b 19 13 7b 3c ae 01 bf bb
       0.009312509 0.004928967 0.015324377 -0.0058290577
000150 46 22 a0 bc f2 40 a8 3c c6 42 3d bb 82 3b 1c bc
       -0.019547593 0.02053878 -0.0028878911 -0.009535672
000160 64 a5 e8 3c 6c fd 8c 3c 4c 53 0a bd 8f 28 11 bd
       0.028399177 0.017210685 -0.033770844 -0.03543907
000170 dc ff fe 3b 51 b5 08 bd 77 7e b4 3c 37 53 cf 3b
       0.0077819657 -0.03337604 0.02203296 0.0063270587
000180 75 89 87 3d 35 7d 71 3d a6 c1 6a 3d f0 44 de 3c
       0.06618015 0.058957297 0.057313584 0.027132481
000190 49 88 00 bd 5b 23 8c 3c 1f 41 2e bd 56 e1 ab bc
       -0.03137997 0.017106703 -0.042542573 -0.020981472
0001a0 b2 f5 12 3d 1d 3b 57 bc 12 e7 0b 3d 37 8b 5f 3c
       0.035878845 -0.013136652 0.034155913 0.013644031
0001b0 7d 2a 85 bc 78 14 4e bd 1f d7 05 3d 5e 1f 2a b9
       -0.016255612 -0.05031249 0.03267586 -0.00016224149
0001c0 d1 ea 11 3d 7a fc 42 bd cd a7 84 3c d6 66 64 bd
       0.03562433 -0.04760406 0.016193295 -0.055762134
0001d0 c5 28 ff bc fd 44 84 bd 2f 52 83 bd 87 82 7a bc
       -0.03114737 -0.06458471 -0.0641216 -0.015289909
0001e0 dd 36 88 3c 0f fb b2 bc 59 a7 f8 bc d8 78 25 3c
       0.016627723 -0.02184823 -0.030353235 0.010099612
0001f0 f6 05 c4 bc 95 26 45 bc df 98 30 3d b4 ef 88 3d
       -0.023928624 -0.012033124 0.04311454 0.06686345
000200 46 24 7d 3d fb 4d 51 3d 13 f4 30 3d 7a 14 19 3c
       0.06180217 0.05109976 0.043201517 0.009343261
000210 08 52 85 3d ed ca 00 3d ef 46 9c 3b 48 53 ff 3c
       0.06509787 0.031443525 0.004769198 0.031167641
000220 86 85 c6 bc 7c 50 25 3d 61 f3 28 3c fe dc 02 3d
       -0.02423359 0.04035996 0.010311932 0.031949036
000230 05 8a fa 3c a7 b9 e5 3c 01 0f 57 3d 92 6e 00 3d
       0.030583391 0.028042627 0.052504543 0.031355448
000240 b6 28 81 3d d5 52 0e bd 9f 48 07 3d f9 ec cd bb
       0.06306593 -0.034746964 0.03302824 -0.006284353
000250 4a bb 3b bd df 59 dc 3c 7c 92 d9 bc cb c0 f1 bc
       -0.04583291 0.026898323 -0.026559107 -0.029510876
000260 47 c5 f1 3b 84 7b 21 3b f7 62 f7 3c d0 1f 4c bb
       0.0073782536 0.0024640271 0.030198557 -0.0031146891
000270 57 3a 2f 39 7f 0c 35 3d 18 c2 95 3c df 7b 78 bb
       0.00016711034 0.04420137 0.018281028 -0.003791563
000280 d1 cd 8f 3b 67 b7 9f bc 0a 39 95 bc 60 70 68 3a
       0.004388549 -0.019496633 -0.018215675 0.0008866843
000290 69 d4 b3 bc 12 fd 1c bd 17 bc 3d bd 22 0f 5f 39
       -0.021951871 -0.038327284 -0.046321955 0.00021272575
0002a0 21 86 a6 3c 5f e8 a0 3c 7b 9d 47 bd 41 9a 99 3c
       0.02032763 0.019642053 -0.04873417 0.018750312
0002b0 01 9f 40 bc 40 65 c9 bc 19 5e 45 3c 63 77 0a bd
       -0.0117566595 -0.024584413 0.01204636 -0.033805262
0002c0 da 98 b9 ba b3 e1 23 3d 8e fd 73 3c 58 31 a0 3b
       -0.0014159933 0.040010165 0.014891995 0.0048886947
0002d0 5e 97 33 bd 1f b4 cb 3c 76 09 c8 3c eb a0 11 3d
       -0.043845527 0.024866162 0.024418574 0.035553854
0002e0 ea f8 4f bc a2 ff e1 3b 56 8b 1d 3c f0 66 d0 3c
       -0.012693623 0.006896929 0.00961574 0.02543971
0002f0 87 32 32 bb cb da 58 bd 5c 20 f4 bc 08 90 0a 3b
       -0.0027190761 -0.052943032 -0.029800586 0.0021142978
000300 0d 3d a1 bc 2f d4 c5 3a 68 83 a0 bc a7 3d c4 bc
       -0.019682432 0.0015093143 -0.01959391 -0.02395518
000310 b4 80 47 bd e0 c2 08 3b 11 80 74 bd 66 34 44 bd
       -0.048706725 0.0020868108 -0.059692446 -0.047901534
000320 a9 79 73 3c b9 e1 9e bc ee ea 00 3d a8 74 53 bc
       0.014860549 -0.019394742 0.031474046 -0.012906231
000330 10 69 61 bd 00 6e 19 3d 24 12 f3 bb 75 97 17 bc
       -0.055031836 0.03745842 -0.007417934 -0.009252419
000340 be 2b 2d 3b 49 44 bc 3c fc 49 87 3d 8a 3d 7e 3d
       0.0026423777 0.02298178 0.06605908 0.062070407
000350 12 26 0e bd 75 83 44 bd 39 cd ad bc 06 3a c5 3c
       -0.034704275 -0.04797693 -0.021216022 0.02407552
000360 77 97 3b 3d f3 26 14 3d 03 c0 3b 3d 3e 80 83 3d
       0.045798745 0.036169957 0.045837414 0.06420945
000370 11 26 42 3c 41 3f ec 3c bc e9 4c 3c bb de a7 3c
       0.011849896 0.028838756 0.0125068985 0.020491948
000380 90 da d5 bc c1 06 0d 3d 84 ec 8c 3c 60 02 17 3d
       -0.026105195 0.03443027 0.017202623 0.0368675
000390 fa df 42 3d 2f 27 55 3d 17 20 de 3c 7b 97 85 bb
       0.047576882 0.05203932 0.027114911 -0.004076896
0003a0 a8 21 b8 bc 12 6a 81 3c 50 dd fc 3c 28 c7 18 bc
       -0.022476986 0.015797649 0.030867249 -0.009324826
0003b0 f5 e3 1d bc 0e 46 ad bb b2 48 a4 ba 82 d2 f7 3c
       -0.009636869 -0.005287892 -0.0012533872 0.030251745
0003c0 42 2c db bc e3 f6 52 3d 3a 45 c0 3a c3 04 13 bc
       -0.026754502 0.05150498 0.0014669069 -0.008973303
0003d0 d9 13 9b bb d8 ff d4 bc dd 0c 0f bd 6f 00 02 3c
       -0.0047325906 -0.026000902 -0.034924377 0.007934674
0003e0 a1 1c fb bb 53 46 86 bc 6e cf f2 bc ab 85 f1 b9
       -0.007663325 -0.016390955 -0.029639926 -0.00046066692
0003f0 3c a4 35 3d ce b1 2e bd 22 84 9b 3c 36 a4 55 3c
       0.04434608 -0.042650037 0.018983904 0.013039639

fc1.weight f4 [16, 1024]
000000 ef d9 09 bd e4 50 3c 3c 0d 52 a2 3c 60 eb 71 3c
       -0.033655103 0.011493895 0.019814515 0.01476559
000010 b4 40 29 3c 3b ca ed bc 7a b7 06 bc a9 aa 13 bd
       0.010330368 -0.029027095 -0.008222455 -0.036051426
000020 b2 56 71 bb 13 22 9f 3b 12 8e 03 bd e2 5f fb bb
       -0.0036825356 0.004856357 -0.03211791 -0.007671342
000030 8f 55 09 bc a6 60 89 bb 42 09 53 3c 0b c3 10 3d
       -0.008382215 -0.0041924296 0.012880625 0.035342257
000040 57 e0 13 3b 1c 55 0d bb 71 bf b2 3b 23 38 8e b9
       0.0022564137 -0.0021565622 0.0054549505 -0.00027126176
000050 42 c0 88 3a 20 40 6d 3c 06 e5 0c bc 39 92 e8 3b
       0.0010433274 0.014480621 -0.008599525 0.007097509
000060 b6 03 46 3c 66 31 15 b8 7c 3a 48 bc 5f f8 2d 3c
       0.012085846 -3.5570374e-05 -0.012220975 0.010618298
000070 c6 d8 8a bc 8b ac 03 3c 32 e0 14 3b 75 ce b0 bb
       -0.016949069 0.008036743 0.0022716639 -0.0053957053
000080 f2 37 ea bb 41 cc 40 3b 0f c0 32 bc 76 4f d5 ba
       -0.0071477825 0.002941862 -0.010910048 -0.0016274292
000090 99 1d 45 3c 78 49 fe ba 4b dd 4c bc f6 08 4e 3c
       0.012030982 -0.0019400558 -0.012503932 0.012575379
0000a0 80 96 21 3c c1 06 5b 3c 23 9d d7 bb 6e 69 93 bc
       0.009862542 0.0133683095 -0.0065800115 -0.017994609
0000b0 3d 82 df bb 0d 7f 30 3c 1e a6 82 3b fd 3f 53 3c
       -0.0068209455 0.010772479 0.003987088 0.012893674
0000c0 14 c3 e4 3b f1 41 95 bc 18 de 94 bc 1d 16 48 bb
       0.006981263 -0.01821992 -0.018172309 -0.0030530759
0000d0 d3 64 51 bc 96 e3 49 bc 91 3f 53 3a b2 11 8d bb
       -0.012780386 -0.012322327 0.00080584834 -0.004305088
0000e0 1a 34 4e 3c 7d 0f 2d bc 9b 34 d8 3b 76 ab 25 bc
       0.012585664 -0.010562775 0.006598068 -0.01011168
0000f0 04 5e 29 bc 66 a2 5e 3c ce a1 12 3a 91 19 7e 3c
       -0.0103373565 0.0135885235 0.0005593569 0.015509025
000100 6c e8 08 bd c5 a4 98 bc 51 3f 01 bd 59 a2 62 3c
       -0.03342478 -0.018633256 -0.031554524 0.013832652
000110 fe 83 38 3c 36 14 26 bc 43 0f 30 39 80 38 16 bd
       0.011261938 -0.010136655 0.00016790353 -0.036674976
000120 ec c5 23 bd 04 4c 10 3c 98 94 0d bd 9e 9d f0 3c
       -0.039983675 0.008807186 -0.03456554 0.029372033
000130 b8 9b 55 3c c1 af 4b 3c b2 b6 8e bc f5 4a c6 ba
       0.0130376145 0.01243204 -0.0174211 -0.001512854
000140 1b c4 aa 3c 84 29 9b 3c e2 13 8d bb 48 f7 a1 3b
       0.020845463 0.018940695 -0.0043053487 0.0049428083
000150 d8 70 8f bb 04 cc 1d bc a2 cb 91 ba 92 8e 72 3c
       -0.0043774657 -0.009631161 -0.0011123309 0.014804499
000160 1c 92 b2 3c 6c d1 a0 3c 96 aa 54 bc f8 85 2f bb
       0.021798186 0.01963111 -0.012980124 -0.0026782732
000170 10 e1 cb bc d1 fa d8 bb d8 d7 49 bb 2c 15 94 bc
       -0.024887592 -0.0066216965 -0.003079882 -0.018076502
000180 a6 e8 61 3c c1 54 67 bc 8a d1 cb bc 21 8d 74 bc
       0.013788378 -0.014119328 -0.02488019 -0.014926226
000190 65 07 11 bc 31 c9 c0 bc 4e 74 08 3c 19 45 0c bb
       -0.008851861 -0.023533436 0.00832851 -0.002140349
0001a0 27 0f 91 bc 6d e9 59 bb a1 2a c5 bc 72 e3 c9 3a
       -0.01770742 -0.0033250705 -0.024068179 0.0015402867
0001b0 fd 59 c0 bb 61 ef df bb 4f fc 60 bb 2c 9a 75 bc
       -0.0058701024 -0.006833956 -0.0034330075 -0.014990371
0001c0 6b 1f 0f 3c 50 38 a9 bc f0 a2 b4 bb c6 89 4a 3c
       0.008735518 -0.020656735 -0.0055125877 0.012361949
0001d0 6d 99 3a ba ba 58 ab bc 97 75 82 3c 0e cf 91 bc
       -0.0007118199 -0.020916332 0.015925212 -0.017798927
0001e0 be 2e 69 bc 9f dd 00 3c f8 4a 93 bc 51 00 45 bb
       -0.014232336 0.007865339 -0.017980084 -0.0030060003
0001f0 ea 9f 86 3b 15 da 04 3c e2 3e 8d bc a1 01 89 3c
       0.0041084187 0.008108635 -0.017241899 0.01672441
000200 75 c2 27 3c 4b 29 ba bc 00 b8 56 bc fc 58 b8 bc
       0.010239233 -0.022724768 -0.013105392 -0.022503369
000210 ca 29 e7 bc 4a 2b 74 3c b9 39 a2 3c 2a f7 3f 3c
       -0.028218169 0.014902899 0.019802915 0.011716643
000220 5f eb ba 3c 5a 4d bd bc 06 8e 6f bb 9c 4d 1b bc
       0.022817312 -0.023108173 -0.0036553158 -0.009478953
000230 f9 3a 60 3c b1 ce 7b 3b 42 00 8a bc b5 d1 72 3b
       0.013685935 0.0038422758 -0.016845826 0.0037051265
000240 10 5c 64 3c b7 32 a7 3b 75 10 1c 3c 67 ae ef bb
       0.013937965 0.005102481 0.009525408 -0.0073144916
000250 f7 de ee 3c 84 8c d8 bb 02 f0 aa ba 79 ed b0 bb
       0.029159052 -0.0066085476 -0.0013041499 -0.0053994027
000260 df 25 03 bb 9a 3f ca bb 80 20 18 3c d3 b4 80 3c
       -0.0020011587 -0.0061721327 0.009285092 0.015711224
000270 25 39 90 3b 2a 24 e4 3b f2 c5 66 3c 07 66 27 bc
       0.0044013434 0.006962319 0.01408528 -0.010217196
000280 20 97 8c 3b af 86 21 3c 6c ae ca 3b 26 3d 02 bb
       0.0042904764 0.009858771 0.0061853435 -0.0019872873
000290 85 3c 70 ba 4f d3 85 bb 13 b0 8d 3c 6c d9 16 bb
       -0.00091642916 -0.004084028 0.017295873 -0.0023017777
0002a0 45 39 b7 3a b0 8e 83 3b 30 18 fb bb 81 a9 ac bb
       0.001397886 0.0040148124 -0.0076627955 -0.00526923
0002b0 87 f9 b4 bb 21 b9 d3 3b 86 ed 96 bb fb 75 ec bb
       -0.00552291 0.006461278 -0.0046059517 -0.007216213
0002c0 b4 b1 a0 bb 87 d4 88 ba 15 5a 2b b8 69 a5 9f bb
       -0.0049039964 -0.0010439315 -4.0853472e-05 -0.0048720133
0002d0 aa a3 f8 3b 38 63 89 3a ec ac cb bb 14 be 24 3c
       0.0075878697 0.001048184 -0.0062156823 0.010055084
0002e0 43 f3 df 3b b8 13 c0 3b 22 d7 7b 3c 73 f7 aa bb
       0.006834419 0.0058617257 0.015371116 -0.0052174865
0002f0 b1 ff 23 3c 59 b0 3d bc 71 4f 38 bc ab 84 2a 3b
       0.010009692 -0.011577689 -0.011249409 0.0026019018
000300 36 f6 bf bc f3 e9 60 3b 0f a6 1a bd e2 4e ab bc
       -0.023432832 0.0034319132 -0.037756022 -0.020911638
000310 de 95 86 3c 77 3b 8e bb 51 82 e3 3c 2c d2 14 3d
       0.016428884 -0.004340585 0.0277721 0.036333248
000320 4a 87 4f b8 15 01 2e bb e3 c7 e2 3b e7 bf 71 bc
       -4.9478644e-05 -0.0026550938 0.006920801 -0.014755226
000330 00 09 63 bb 5b 37 df 3b 05 b7 f4 3c d1 25 a9 3c
       -0.0034642816 0.006812019 0.029872427 0.020647915
000340 84 90 b2 3c 4e 01 29 bc d6 f6 cc bc 64 f4 9b bc
       0.021797426 -0.0103152525 -0.025020044 -0.019037433
000350 1c df 52 3c 96 dd 68 3c a7 2e 02 3b 5f 98 b7 3c
       0.012870576 0.014212986 0.0019864233 0.022411523
000360 7d 24 10 bc 17 78 0f 3a 25 b9 cb 3b c4 79 52 3c
       -0.008797762 0.0005472912 0.0062171393 0.012846414
000370 96 77 a5 3c d5 79 71 bb 6e 36 bc 3c 19 dc b9 3c
       0.020198625 -0.00368463 0.022975173 0.022687959
000380 a0 d8 1f 3c 81 9d a4 bb eb fe 40 3c 8d 30 1f 3c
       0.009756237 -0.0050236587 0.011779527 0.009716165
000390 ee 8e 97 b7 90 af b8 3c 03 90 f7 bb 48 df 8f 38
       -1.806716e-05 0.022544652 -0.0075550093 6.860361e-05
0003a0 fd c4 89 b9 58 cb b8 3a fb 93 97 3c a0 16 ae 3b
       -0.00026277444 0.0014098687 0.01850318 0.0053127557
0003b0 49 e0 0b 3c 38 a3 14 bc 8e 99 b0 bb ce 84 8a 3c
       0.0085373605 -0.0090721175 -0.005389399 0.01690903
0003c0 52 75 7e 39 a4 f7 48 3c 9c 79 e5 bb fb e6 67 bb
       0.00024267033 0.012266073 -0.0070030224 -0.0035385478
0003d0 56 86 6b 3c 2e 0c 91 3c cc 8f ec 3b 84 73 18 bc
       0.01437529 0.017706003 0.0072192904 -0.009304885
0003e0 2e 3f 96 bb 89 3d 66 b8 ee 59 92 3c 9d 7a 85 bc
       -0.0045851683 -5.4893582e-05 0.017865147 -0.016293818
0003f0 e8 c2 3d bc 95 3c ae bc eb 48 5a bc 9a 7b d5 3c
       -0.011582114 -0.021269122 -0.013323049 0.026059914

fc1.bias f4 [16]
000000 82 dc f1 bc d1 62 1e 3d 0e 61 26 bd cb 6d 1d bc
       -0.029524092 0.038668457 -0.040619902 -0.009608696
000010 ef a2 06 bc 82 0a d2 3c a2 54 c7 3b c1 46 c9 bb
       -0.008217557 0.025639776 0.006083087 -0.0061424677
000020 9b 9d 24 bd ed f0 c2 bc 55 4f ef bc bf c4 6f bc
       -0.040189367 -0.023796523 -0.029212633 -0.01463431
000030 4a d6 33 bc 1d 55 82 bc b7 04 4e 3d 6d 48 9e 3b
       -0.010976383 -0.015909726 0.050297465 0.004830411

fc2.weight f4 [1, 16]
000000 2a 10 34 be 3a c3 7f bd da 89 f8 3d 8d f5 7b 3d
       -0.17584291 -0.062442042 0.12135668 0.061513472
000010 a4 82 fd 3d f3 34 b0 bd c2 5a 15 3e 0e 87 2a 3d
       0.12378433 -0.08603849 0.14585403 0.041632704
000020 86 d1 11 3e 56 09 1a 3e c0 17 9c 3c 79 2f ab bd
       0.14240083 0.15042624 0.019054294 -0.08358664
000030 69 74 d0 3d 9c 33 00 be b1 e9 df bd c8 d8 18 3e
       0.101784535 -0.12519687 -0.10933245 0.14926445
